ai/models/topic_model/topic_embeddings.safetensors (safetensors, 457816 bytes, 1 tensors)

topic_embeddings f4 [298, 384]
0	0xbdd58344	-0.104254276
1	0x3dce7a94	0.10081974
2	0xbe957f89	-0.29198864
3	0x3dc89295	0.09793583
4	0xbda82b1f	-0.0821135
5	0x3a97863b	0.001156039
6	0xbd23d344	-0.0399964
7	0x3e4999f0	0.19687629
8	0x3b3531e1	0.0027648138
9	0x3dc05404	0.09391025
10	0x3e24829d	0.1606545
11	0xbdccb026	-0.09994535
12	0x3bf05d30	0.0073353276
13	0x3d6698bf	0.056298014
14	0xbe33b06c	-0.17547768
15	0x3c2bfeac	0.01049773
16	0x3c8f5c1a	0.017499972
17	0x3d57d5ee	0.052694254
18	0xbdd17578	-0.102274835
19	0xbd99ea0e	-0.075153455
20	0xba1feda0	-0.00061007775
21	0x3e0f1410	0.13972497
22	0x3d023d99	0.031797025
23	0xbda5990f	-0.08085834
24	0xbcc1aa29	-0.023640709
25	0xbd81739e	-0.0632088
26	0xbd967572	-0.0734662
27	0xbd931149	-0.07181031
28	0xbd54b653	-0.05193169
29	0xbe94707e	-0.28992075
30	0xbd8c1378	-0.06839651
31	0x3d6389f8	0.0555515
32	0x3e520e3e	0.20513245
33	0x3e05b756	0.13058218
34	0x3da9266a	0.0825928
35	0x3e4046e4	0.18777043
36	0x3dd7698a	0.10518177
37	0x3ddd4432	0.10804023
38	0x3d81674a	0.06318529
39	0xbd1d1851	-0.038353268
40	0xbe2ee7ef	-0.17080663
41	0x3d6d7af0	0.05797857
42	0x3db1d0ce	0.086824045
43	0x3ea2dd8c	0.31809652
44	0xbd532f07	-0.05155852
45	0xbdada948	-0.084795535
46	0xbdd74c17	-0.1051256
47	0xbdb21159	-0.08694715
48	0xbceb2287	-0.028702987
49	0xbd4e6837	-0.050392356
50	0xbddae638	-0.10688442
51	0x3c88b998	0.01669006
52	0xbeac0263	-0.3359557
53	0xbd7c1259	-0.061540935
54	0x3d9ca3af	0.07648408
55	0xbd885176	-0.066561624
56	0xbdb172b3	-0.08664455
57	0x3c596c16	0.013270399
58	0xbd90bccc	-0.0706726
59	0xbdc8d9b9	-0.09807152
60	0x3e437f99	0.19091643
61	0x3c50c36a	0.012741903
62	0xbeb92727	-0.36162683
63	0x3df5a8ea	0.119951084
64	0x3ceaa11d	0.028641278
65	0xbd759deb	-0.059965055
66	0x3aec3083	0.0018019829
67	0xbe05145f	-0.12996052
68	0xbdc9ab83	-0.098471664
69	0x3e51d08b	0.20489709
70	0xbe27fdc3	-0.16405396
71	0x3e3401c1	0.17578794
72	0x3c350e19	0.011050724
73	0x3cdffc9b	0.027342131
74	0x3e4e57f3	0.20150737
75	0x3e2e257a	0.17006484
76	0xbd1056b6	-0.035238944
77	0xbd4de8ce	-0.050270848
78	0xbda39cc8	-0.07988888
79	0xbdecbf6b	-0.115599476
80	0x3d915d49	0.07097871
81	0xbdbe1565	-0.092814244
82	0x3dbab06e	0.091156825
83	0x3cfd7ee3	0.030944293
84	0x3d8d0660	0.068859816
85	0x3dbb865c	0.091564864
86	0x3e047cdb	0.12938254
87	0xbe14aef7	-0.14519869
88	0x3dc9c96c	0.09852871
89	0xbd9b0664	-0.07569578
90	0xbd10fe2f	-0.03539866
91	0xbb32f432	-0.0027306196
92	0x3d95531c	0.072912425
93	0xbbcdedb8	-0.006284442
94	0x3d3d7ba0	0.046260476
95	0x3e2b9461	0.16755821
96	0xbc2bbc2b	-0.010481874
97	0xbd9b9810	-0.07597363
98	0x3e9672a4	0.2938434
99	0x3ef2e47e	0.4743995
100	0x3d6b9705	0.05751707
101	0x3e1c087c	0.15237612
102	0x39e5b3f0	0.00043812348
103	0xbddfc1e2	-0.10925652
104	0xba552607	-0.00081309717
105	0xbe6d3d07	-0.23167811
106	0x3e7f779e	0.24947974
107	0xbd9e41bf	-0.07727384
108	0x3dbd6fce	0.09249841
109	0xbe1ddd07	-0.15416346
110	0x3ca70da2	0.020392243
111	0xbe34d0f1	-0.1765783
112	0xbd8d00e1	-0.06884933
113	0xbdb1cd4f	-0.08681738
114	0xbcadb625	-0.021205017
115	0xbdad5252	-0.08462967
116	0x3e298f6a	0.16558614
117	0xbd39ab56	-0.045329414
118	0x3d802cb5	0.06258527
119	0x3e2f82c4	0.17139727
120	0x3e0a049e	0.13478324
121	0xbd026aad	-0.031840015
122	0x3d988151	0.0744654
123	0xbcc067c5	-0.023486981
124	0x3d37aa33	0.04484005
125	0xbeabdbca	-0.33566123
126	0x3d18a099	0.037262533
127	0x3da0c778	0.07850546
128	0x3db522fb	0.088445626
129	0xbdeb0647	-0.11475807
130	0x3e07956d	0.13240595
131	0x3e1b06bf	0.15139292
132	0x3dd04ad3	0.101705216
133	0x3d48920e	0.048967414
134	0xbd68ce23	-0.056837212
135	0xbda95e03	-0.082698844
136	0xbbaf0e58	-0.005342286
137	0x3e21e0d9	0.15808429
138	0xbe1abb35	-0.15110476
139	0xbd4b4d23	-0.04963411
140	0xbc82c31a	-0.015962172
141	0x3de41c34	0.11138192
142	0xbe834954	-0.25641882
143	0xbd3d6b11	-0.046244685
144	0xbdcb9599	-0.09940643
145	0x3c7cd0f5	0.015430679
146	0x3a9ea5ba	0.0012103834
147	0xbdc5ac58	-0.096520126
148	0x3c2d023e	0.010559617
149	0x3e90fd47	0.28318235
150	0x3e62ebbc	0.22160238
151	0xbdc0ea7f	-0.094197266
152	0x3d40acbb	0.04703973
153	0x3e3f4bae	0.18681213
154	0x3d6fe522	0.058568127
155	0xbe098289	-0.13428701
156	0x3e8c62a3	0.27419004
157	0x3dbeada1	0.09310461
158	0x3d47a18d	0.04873805
159	0xbd483064	-0.048874274
160	0xbab65273	-0.001391007
161	0x3e3b8487	0.18312274
162	0x3de1d2c9	0.11026532
163	0xbe202503	-0.15639119
164	0x3d2b7705	0.041861553
165	0xbe30e201	-0.17273714
166	0x3e1d5a22	0.15366414
167	0x3d859124	0.06521824
168	0xbdb0ad60	-0.08626819
169	0x3ddb144d	0.106972314
170	0x3e24391c	0.1603741
171	0xbe666dd1	-0.22502829
172	0xbcd6bf1e	-0.026214179
173	0x3e9e412d	0.309091
174	0x3db3e3fa	0.087837175
175	0x3e180376	0.1484507
176	0x3e1e4d5e	0.154592
177	0x3df154ff	0.1178379
178	0xbe17c787	-0.14822207
179	0xbd747365	-0.05968036
180	0x3d341a98	0.043970674
181	0x3ca87afb	0.020566454
182	0x3d538a7c	0.05164574
183	0xbc11e886	-0.008905536
184	0xbe8e83af	-0.27834842
185	0x3df63a16	0.12022798
186	0xbd8cc74d	-0.06873951
187	0x3e2c64fb	0.16835396
188	0x3e39d138	0.18146217
189	0x3e6faeab	0.23406474
190	0x3d52fc31	0.05151004
191	0xbd240715	-0.040045816
192	0x3d25e844	0.04050471
193	0xbe34318d	-0.17597027
194	0xbe135202	-0.14386752
195	0xbe504680	-0.20339394
196	0x3e2060fe	0.15662
197	0xbe4f80e7	-0.20264016
198	0xbea6cf44	-0.32580006
199	0x3d8dcfe4	0.069244176
200	0xbeadc6bb	-0.33940682
201	0x3c88e28b	0.016709587
202	0x3d2b0c71	0.041759912
203	0xbd58f61e	-0.05296909
204	0x3e233a4a	0.15940204
205	0xbe8273a3	-0.2547885
206	0x3c0ebe1c	0.008712318
207	0xbc761c64	-0.015021417
208	0xbdf4bae6	-0.119497105
209	0xbe0349eb	-0.12821166
210	0x3c575c2a	0.013144532
211	0xbdec4c17	-0.115379505
212	0xbe57fc4d	-0.21092339
213	0xbda7f21d	-0.08200476
214	0xbcf2267e	-0.02955937
215	0x3d63dbf3	0.05562968
216	0xbcf93090	-0.030418664
217	0xbd49a0fd	-0.049225796
218	0xbd9de132	-0.07708968
219	0x3da4d58e	0.08048545
220	0x3de87c32	0.113518134
221	0xbe85b90b	-0.2611774
222	0xbd1eabe7	-0.038738158
223	0xbece6ed7	-0.4031894
224	0xbd555a60	-0.05208814
225	0xbdb3ccdc	-0.08779308
226	0xbe973204	-0.29530346
227	0x3d9ff01d	0.0780947
228	0xbd3cbef2	-0.046080537
229	0xbcdbdbbc	-0.026838176
230	0xbe3da236	-0.1851891
231	0xbd9808c1	-0.07423545
232	0x3e817ddd	0.2529134
233	0x3d54a37e	0.05191373
234	0xbdbf5454	-0.09342256
235	0xbda0a8a6	-0.07844667
236	0x3e385ab0	0.18003345
237	0xbd512b73	-0.051066827
238	0xbc9e6862	-0.019336883
239	0xbe842f79	-0.2581747
240	0xbe3527ff	-0.17691039
241	0xbeb4b25f	-0.35292336
242	0xbd4463cb	-0.047946732
243	0x3ddf8cf0	0.109155536
244	0x3d589075	0.05287214
245	0x3d93ed88	0.0722304
246	0xbe4fcd56	-0.20293173
247	0x3dddf7d8	0.10838288
248	0xbc87a6e9	-0.016559081
249	0x3ea39812	0.31951958
250	0x3ce441e8	0.027863458
251	0xbe41ce1b	-0.18926279
252	0xbd8172d2	-0.06320728
253	0x3d498c1e	0.04920589
254	0x3dd88075	0.10571376
255	0x3e937188	0.28797555
